…
ll control of the loaded file. Please open an issue on GitHub for any issues re
lated to this experimental feature.
  saved_weights = torch.load(
<All keys matched successfully>
Running FSDP on rank = 0, world size = 1
/home/exouser/coconut/.venv/lib/python3.12/site-packages/torch/distributed/fsdp
/_init_utils.py:444: UserWarning: FSDP is switching to use `NO_SHARD` instead o
f ShardingStrategy.FULL_SHARD since the world size is 1.
  warnings.warn(
FullyShardedDataParallel(
  (_fsdp_wrapped_module): Coconut(
    (base_causallm): GPTNeoXForCausalLM(
      (gpt_neox): GPTNeoXModel(
        (embed_in): Embedding(50280, 128)
        (emb_dropout): Dropout(p=0.0, inplace=False)
        (layers): ModuleList(
          (0-5): 6 x GPTNeoXLayer(
            (input_layernorm): LayerNorm((128,), eps=1e-05, elementwise_affine=
True)
            (post_attention_layernorm): LayerNorm((128,), eps=1e-05, elementwis
e_affine=True)
            (post_attention_dropout): Dropout(p=0.0, inplace=False)
            (post_mlp_dropout): Dropout(p=0.0, inplace=False)
            (attention): GPTNeoXSdpaAttention(
              (rotary_emb): GPTNeoXRotaryEmbedding()
              (query_key_value): Linear(in_features=128, out_features=384, bias
=True)
              (dense): Linear(in_features=128, out_features=128, bias=True)
              (attention_dropout): Dropout(p=0.0, inplace=False)
            )
            (mlp): GPTNeoXMLP(
              (dense_h_to_4h): Linear(in_features=128, out_features=512, bias=T
rue)
              (dense_4h_to_h): Linear(in_features=512, out_features=128, bias=T
rue)
              (act): GELUActivation()
            )
          )
        )
        (final_layer_norm): LayerNorm((128,), eps=1e-05, elementwise_affine=Tru
e)
        (rotary_emb): GPTNeoXRotaryEmbedding()
      )
      (embed_out): Linear(in_features=128, out_features=50280, bias=False)
    )
    (embedding): Embedding(50280, 128)
  )
)
Map (num_proc=32): 100%|███████████████████████████████████████████████████████
█| 500/500 [00:01<00:00, 430.12 examples/s]
Map (num_proc=32): 100%|█████████████████████████████████████████████████| 3856
20/385620 [00:38<00:00, 9992.64 examples/s]
wandb: Using wandb-core as the SDK backend.  Please refer to https://wandb.me/w
andb-core for more information.
wandb: Currently logged in as: jinxiayang0422 (jinxiayang0422-university-of-mic
…
